model_checkpoints/gcn_b_epoch14_hd64_lr0.01.pth (torch, 174296 bytes, 8 tensors)

gc1.weight f4 [166, 64]
0.066240214 -0.06053739 -0.007774099 -0.026062017 -0.037693456 -0.10465586 0.01682032 0.021428559
0.040030416 -0.12571508 -0.042484492 -0.040805377 -0.15584587 0.027794639 -0.35660985 0.097401254
-0.17342778 0.0032311236 0.026393408 -0.046492487 -0.04098355 0.029916005 -0.07940336 -0.20175657
0.011633718 -0.012630002 -0.031227652 -0.03067694 -0.16589354 -0.054982375 -0.075252086 -0.28383148
-0.08001721 -0.09891695 -0.09124849 -0.3262268 0.030304793 0.029875068 -0.36846548 -0.0336908
-0.37476197 0.0065465234 -0.058773234 -0.26814708 -0.06517754 -0.22448014 -0.037857927 0.0069322726
-0.21150891 0.086780615 -0.06999666 -0.0074914605 -0.35509917 0.029282868 0.07805328 -0.050462227
-0.18236598 -0.21382189 -0.058362868 0.10532455 0.04809464 -0.09050082 0.052275214 0.0580083
-0.119970284 0.12951517 0.05004187 -1.6504164e-05 -0.028290397 0.0027725066 0.15165946 0.060640354
0.13500588 0.003836482 0.21283951 -0.15052292 -0.026679223 -0.08588882 0.009957747 0.09382696
-0.0065048165 -0.09379847 -0.14982232 7.89395e-07 -3.1807373e-05 0.10655852 -0.06442946 0.035974797
-0.08704643 0.09106855 -0.123432785 0.004257406 0.05726517 -0.14687082 0.0019466362 0.0065243277
-0.08934223 0.03858604 0.0050842855 -0.02031412 -0.16324987 0.034628678 0.088415794 0.09570234
0.018754834 0.014797038 0.09107094 0.0064286003 0.004454388 0.063403636 0.09516269 -0.15463878
-0.009275561 0.009452613 0.0273579 0.05017735 0.05230017 0.2021026 -0.21380556 -1.8847782e-05
0.06734722 0.061776113 -0.0714853 0.0015138005 0.19633539 -0.017339244 0.055296786 -0.050818972
-0.20744322 -0.09400106 -0.1236188 -8.235106e-05 0.123011716 0.0065402696 0.02530288 0.05077066
-0.027315043 -0.12840647 -0.13983501 0.050376695 0.08416781 -0.009964751 0.018741013 0.017569449
0.012003717 0.068632394 -0.009849203 -6.490218e-08 -8.783929e-06 -0.082598254 0.11098165 -0.17430207
-0.08601887 0.027643172 0.07097443 -0.012700285 -0.14949873 0.105155125 0.038073603 0.10288331
0.06141797 0.0076801507 0.013726108 0.13683245 -0.1463717 -0.0484419 0.08282833 0.04017769
0.029616637 0.06436505 -0.027054943 0.021918423 0.027523085 -0.21890065 -0.053644568 0.027360065
0.006120196 0.035374865 -0.043442458 0.036756553 0.0060518146 0.016383337 -0.09809557 -1.0404252e-05
-0.1648505 -0.17557858 -0.026048966 0.08588536 -0.029854195 0.0478375 0.07770458 0.08151691
0.10820781 0.06129848 -0.08878144 0.0023048935 -0.20462948 -0.0019891409 0.24254006 0.010141244
0.38355413 0.0758377 -0.059651323 -0.36552715 0.11164747 -0.034984145 0.017993268 -0.22326922
-0.01288543 -0.02226125 -0.19860952 -0.016764307 -0.0059805172 0.092589244 -0.25469977 -0.0056344266
-0.17895427 0.13475338 -0.26407486 0.025767084 0.120240495 -0.33842424 -0.1558608 -0.088577345
-0.3198437 0.043878805 0.13729216 -0.1621986 -0.07307126 -0.28536004 -0.015983853 0.17967947
-0.08049803 0.23231924 0.06943943 -0.003450999 0.08834069 0.055933744 0.18132123 -0.20314899
-0.040631324 -0.23687561 -0.059989665 0.07236744 -0.15373735 0.1654628 -0.0088355765 0.06982082
0.14025806 -0.014310003 -0.21536821 -0.45936227 0.26056203 0.08564113 -0.20004754 -0.14020786
00000000: f3a8 873d 0ef6 77bd debd febb 0380 d5bc
00000010: 7464 1abd d055 d6bd c5ca 893c f28a af3c
00000020: eff6 233d 74bb 00be 3804 2ebd 8a23 27bd
00000030: 0f96 1fbe 95b1 e33c 9195 b6be 4f7a c73d
00000040: 0d97 31be 42c1 533b fd36 d83c e86e 3ebd
00000050: 5ede 27bd 6912 f53c 3b9e a2bd 4699 4ebe
00000060: 5a9b 3e3c 11ee 4ebc 22d1 ffbc 354e fbbc
00000070: ffdf 29be 3335 61bd c41d 9abd 5c52 91be
00000080: 10e0 a3bd f894 cabd 7de0 babd 3307 a7be
00000090: c241 f83c 8fbc f43c 82a7 bcbe 5dff 09bd
000000a0: cde0 bfbe 3884 d63b 34bc 70bd 934a 89be
000000b0: cd7b 85bd 1fde 65be ea10 1bbd 1e28 e33b
000000c0: cb95 58be 09ba b13d 695a 8fbd ed7a f5bb
000000d0: 8fcf b5be a0e2 ef3c 66da 9f3d 7bb1 4ebd
000000e0: 26be 3abe 20f4 5abe e70d 6fbd 66b4 d73d
000000f0: e3fe 443d 7e58 b9bd 891e 563d 1c9a 6d3d
00000100: fbb2 f5bd a09f 043e b4f8 4c3d 6c72 8ab7
00000110: 43c1 e7bc f1b2 353b 9e4c 1b3e 0562 783d
00000120: fb3e 0a3e 7d6d 7b3b 9af2 593e ae22 1abe
00000130: 638e dabc 7ae6 afbd d125 233c 5928 c03d
00000140: 5b26 d5bb 6a19 c0bd 066b 19be d0e6 5335
00000150: e868 05b8 5a3b da3d 98f3 83bd 4f5a 133d
00000160: 6645 b2bd 2682 ba3d 54ca fcbd b681 8b3b
00000170: e28e 6a3d 4e65 16be 4626 ff3a 07ca d53b
00000180: 0ff9 b6bd 650c 1e3d 149a a63b cc69 a6bc
00000190: f92a 27be cdd6 0d3d 5713 b53d 97ff c33d
000001a0: bda3 993c 476f 723c 6783 ba3d 02a7 d23b
000001b0: 1df6 913b c4d9 813d a8e4 c23d a159 1ebe
000001c0: 86f8 17bc 22df 1a3c ad1d e03c c486 4d3d
000001d0: b438 563d fcf3 4e3e d8ef 5abe 4e1b 9eb7
000001e0: 57ed 893d f308 7d3d e366 92bd b76a c63a
000001f0: 250c 493e 080b 8ebc e27e 623d 8e27 50bd
00000200: ff6b 54be a183 c0bd da2b fdbd e4b3 acb8
00000210: 91ed fb3d c24f d63b fc47 cf3c e5f4 4f3d
00000220: ccc3 dfbc fc7c 03be e930 0fbe cb57 4e3d
00000230: 2c60 ac3d 3243 23bc c186 993c ceed 8f3c
00000240: 3dab 443c 248f 8c3d 8d5e 21bc 5a60 8bb3
00000250: b05e 13b7 4629 a9bd 594a e33d 3e7c 32be
00000260: a92a b0bd ef73 e23c 0b5b 913d db14 50bc
00000270: 3216 19be 925b d73d 11f3 1b3d 7cb4 d23d
00000280: 6991 7b3d c6a9 fb3b 78e3 603c ce1d 0c3e
00000290: 77e2 15be 046b 46bd e6a1 a93d 5d91 243d
000002a0: 979e f23c d3d1 833d 54a2 ddbc 448e b33c
000002b0: 1878 e13c 7e27 60be 68ba 5bbd 3722 e03c
000002c0: ed8b c83b 3ce5 103d b8f0 31bd 0a8e 163d
000002d0: 4d4e c63b 5936 863c 55e6 c8bd ec8d 2eb7
000002e0: 92ce 28be dfca 33be a464 d5bc aae4 af3d
000002f0: c990 f4bc 41f1 433d 9423 9f3d 56f2 a63d
00000300: 0e9c dd3d 1d14 7b3d 0bd3 b5bd b20d 173b
00000310: 648a 51be 3f5c 02bb 6c5c 783e 7627 263c
00000320: 3561 c43e cc50 9b3d f254 74bd 6026 bbbe
00000330: 6ea7 e43d 894b 0fbd 9e66 933c b0a0 64be
00000340: 691d 53bc 3a5d b6bc 4b60 4bbe 4d55 89bc
00000350: 37f8 c3bb 6e9f bd3d 0268 82be ffa0 b8bb
00000360: ca3f 37be cafc 093e d234 87be 7e15 d33c
00000370: a640 f63d f145 adbe f999 1fbe 0a68 b5bd
00000380: 8ec2 a3be 43ba 333d 5196 0c3e 6417 26be
00000390: 62a6 95bd b61a 92be 92f0 82bc e5fd 373e
000003a0: 27dc a4bd 18e5 6d3e 4336 8e3d 282a 62bb
000003b0: f7eb b43d c81a 653d 46ac 393e 4a06 50be
000003c0: 086d 26bd 858f 72be b9b7 75bd 6135 943d
000003d0: 536d 1dbe 156f 293e 18c3 10bc 38fe 8e3d
000003e0: cf9f 0f3e 8174 6abc 7c89 5cbe 8831 ebbe
000003f0: 6368 853e 9e64 af3d 43d9 4cbe a692 0fbe

gc1.bias f4 [64]
-0.2523034 0.16980298 0.06974988 -0.008538864 -0.2664805 -0.015391788 0.08599697 0.1034507
0.089185245 0.06067349 0.2273237 0.21483983 -0.090645306 -0.39731932 -0.25291172 -0.051889397
-0.03274926 -0.2336245 0.010513881 -0.017878711 -0.00861841 0.092130624 0.21596813 0.08755861
0.107645795 0.094368786 0.11464861 -0.0263214 0.2605622 0.0421867 0.3112005 -0.1097523
0.22035936 0.044687185 -0.036015864 -0.15977107 -0.040537585 0.014975463 -0.19978774 0.04839545
-0.10498892 0.12824886 0.055939134 -0.07748555 0.06537306 0.29229116 0.26344627 -0.045356452
-0.024305984 -0.17101517 0.08399127 0.080020115 -0.10029493 0.18305637 -0.107850105 -0.020480562
0.2394193 0.17383601 0.17255256 -0.3351391 0.29872897 0.021550052 -0.2248282 -0.3556207
00000000: e92d 81be d5e0 2d3e 06d9 8e3d 97e6 0bbc
00000010: 2270 88be d72d 7cbc 2e1f b03d f6dd d33d
00000020: c1a6 b63d c484 783d 8bc7 683e f9fe 5b3e
00000030: 3fa4 b9bd 706d cbbe a57d 81be fa89 54bd
00000040: 1724 06bd 433b 6fbe 6a42 2c3c 6076 92bc
00000050: 3b34 0dbc fbae bc3d c026 5d3e ee51 b33d
00000060: 6675 dc3d 6c44 c13d e4cc ea3d fa9f d7bc
00000070: 6968 853e f6cb 2c3d ac55 9f3e d0c5 e0bd
00000080: e2a5 613e e909 373d 5f85 13bd 079b 23be
00000090: bd0a 26bd a55b 753c 2895 4cbe 4f3a 463d
000000a0: 6e04 d7bd ab53 033e 6f20 653d beb0 9ebd
000000b0: 50e2 853d 30a7 953e 6ee2 863e b0c7 39bd
000000c0: 581d c7bc 9a1e 2fbe 9d03 ac3d 96e1 a33d
000000d0: 6e67 cdbd 2173 3b3e 84e0 dcbd dac6 a7bc
000000e0: 552a 753e 1102 323e 9eb1 303e 5a97 abbe
000000f0: 01f3 983e bc89 b03c 5d39 66be eb13 b6be

gc1.linear.weight f4 [166, 166]
-0.061496772 0.04652058 -0.07258878 -0.03941899 -0.050779622 0.0065495027 0.023883903 -0.016742013
0.077576265 0.006264898 0.038108245 0.055793766 -0.0004012041 0.07078184 -0.074734055 -0.00058771466
-0.018849099 -0.045010395 0.0035171097 -0.018327853 -0.06771691 0.07506751 0.06520503 -0.0076315845
0.036927152 -0.062537014 -0.007684823 0.005604441 0.07348802 0.0072386055 -0.056723524 -0.0753197
0.06462711 -0.044991195 -0.024982177 -0.029330885 -0.019600729 -0.069997124 -0.04768895 -0.012429343
0.052656785 -0.04026112 -0.012522551 -0.014656588 -0.030017804 0.026869062 -0.07338095 -0.053456213
0.052931257 0.04646632 0.011575713 -0.049474243 -0.009814252 -0.07640837 0.0610036 0.014426684
0.07551355 -0.064964466 0.06279301 0.037281178 -0.04316097 -0.047468297 0.034429744 -0.040875927
-0.04584948 0.06588597 -0.024047328 -0.02738074 -0.009652733 0.038508765 -0.0019652173 -0.041109126
0.05969389 0.015240528 0.028140014 0.03635156 0.033864044 -0.052765407 0.015889771 -0.012482553
-0.02458077 0.018042618 0.019492587 0.014428979 0.034599446 0.020471448 0.033747204 -0.026588243
-0.0661932 0.05245446 -0.07759429 0.065119326 -0.060477015 -0.03370526 0.017728822 0.051216736
-0.051891636 0.0027500736 0.0047367937 0.072595105 0.044273958 -0.07209012 -0.07539766 -0.011731135
0.0046104607 0.068094954 0.0036043879 -0.06873187 -0.02669348 -0.053460877 0.07673862 0.0017650778
-0.07315473 -0.07086937 -0.07335616 -0.0010384101 -0.032619275 0.027479872 -0.04834442 -0.04047477
0.063486874 0.019010201 0.022867672 0.021929521 0.07138387 0.04227691 0.03916472 -0.014595088
0.034700304 -0.014419921 0.0059754355 -0.0587077 0.036128547 0.03704652 0.07294682 -0.055969007
-0.06816513 0.016357325 -0.0059644342 -0.027868103 -0.05246687 -0.00073548534 -0.056468185 0.027613718
0.07009165 0.022266319 0.026575418 -0.04172319 -0.06978292 -0.056729384 0.0156508 -0.0014698788
-0.0096642515 0.073566385 0.048404995 0.06343307 -0.04406034 -0.005621354 0.022962084 -0.06720781
0.008743681 0.0030259998 0.025411572 -0.013832946 -0.0045567043 0.061385624 0.0023685587 0.017801657
0.0016391799 -0.062244065 -0.0402068 -0.053710915 0.048351884 -0.020768747 -0.03725233 -0.01984676
-0.054458704 -0.014871855 -0.04556409 0.020779174 0.06301805 0.015581739 -0.02045361 -0.051822428
-0.031766545 0.011166024 0.027610682 0.029127287 0.01761461 0.028444586 7.978375e-05 -0.066785194
-0.00032752697 -0.072082736 0.01604288 0.035563927 -0.016072247 0.022712823 0.027840883 0.023501704
0.035997495 -0.056179278 -0.012238826 0.011394522 0.045244567 -0.04858103 0.032702103 -0.01297642
-0.029903714 0.02178412 -0.027642094 -0.039201014 0.0056950497 0.03412815 0.057966053 0.06558685
-0.030275764 -0.037232373 0.018488059 -0.0026142849 -0.009760495 0.0762273 -0.04591035 -0.024483036
0.06075512 0.071407415 0.009590269 -0.02167891 -0.001372423 -0.07689557 -0.01411162 -0.018188428
-0.018577391 0.01878532 -0.053642336 -0.01559189 0.017138887 0.017535651 -0.037847485 -0.019259887
-0.034680866 0.077154644 -0.07329044 0.032605 -0.07351953 -0.0493115 0.06606505 -0.004983001
-0.052998014 -0.021140002 -0.060110047 -0.033834536 -0.033184275 -0.0469597 -0.017047964 -0.0634712
00000000: 0ae4 7bbd 5d8c 3e3d 6da9 94bd cf75 21bd
00000010: 4bfe 4fbd 369d d63b 2da8 c33c 8c26 89bc
00000020: 4ee0 9e3d c649 cd3b 6417 1c3d 0188 643d
00000030: b458 d2b9 12f6 903d 2b0e 99bd dd10 1aba
00000040: 6d69 9abc d25c 38bd 4f7f 663b 4b24 96bc
00000050: 2aaf 8abd ffbc 993d 378a 853d 5f12 fabb
00000060: ed40 173d 6813 80bd f8d0 fbbb 75a5 b73b
00000070: e380 963d d331 ed3b ed56 68bd 3741 9abd
00000080: 385b 843d b048 38bd 6ca7 ccbc 5347 f0bc
00000090: b591 a0bc a75a 8fbd 7d55 43bd 71a4 4bbc
000000a0: a4ae 573d d8e8 24bd 632b 4dbc 3022 70bc
000000b0: e6e7 f5bc 821c dc3c c048 96bd e7f4 5abd
000000c0: 72ce 583d 7853 3e3d 0fa8 3d3c 81a5 4abd
000000d0: f5cb 20bc fe7b 9cbd e9de 793d e65d 6c3c
000000e0: d9a6 9a3d 170c 85bd 9f99 803d 26b4 183d
000000f0: 8fc9 30bd 1e6e 42bd 3406 0d3d 846d 27bd
00000100: aacc 3bbd 39ef 863d e7fe c4bc 934d e0bc
00000110: 7f26 1ebc 5ebb 1d3d e0ca 00bb 0b62 28bd
00000120: 9581 743d 68b3 793c e385 e63c 60e5 143d
00000130: 06b5 0a3d 8a20 58bd 442b 823c 9f83 4cbc
00000140: 9c5d c9bc 1dce 933c ebae 9f3c 8667 6c3c
00000150: 26b8 0d3d bdb3 a73c 823a 0a3d 96cf d9bc
00000160: 4d90 87bd 7dda 563d c1e9 9ebd 485d 853d
00000170: bfb6 77bd 870e 0abd 093c 913c a4c8 513d
00000180: 538c 54bd 943a 343b 1b37 9b3b beac 943d
00000190: 9c58 353d fca3 93bd 176a 9abd f233 40bc
000001a0: 5913 973b 5e75 8b3d 9837 6c3b 4bc3 8cbd
000001b0: 49ac dabc cbf9 5abd 2329 9d3d 2f5a e73a
000001c0: 26d2 95bd f623 91bd c13b 96bd 431b 88ba
000001d0: ca9b 05bd 781d e13c cc04 46bd dfc8 25bd
000001e0: 6805 823d 48bb 9b3c fc54 bb3c 8aa5 b33c
000001f0: b531 923d 8e2a 2d3d 2f6b 203d 3c20 6fbc
00000200: e821 0e3d 8841 6cbc 96cd c33b 7c77 70bd
00000210: 87fb 133d 17be 173d 2465 953d c23f 65bd
00000220: 299a 8bbd ccff 853c 4d71 c3bb a64b e4bc
00000230: 80e7 56bd 96cd 40ba 2f4b 67bd 2a36 e23c
00000240: 368c 8f3d db67 b63c b1b4 d93c f0e5 2abd
00000250: 59ea 8ebd 125d 68bd 1b36 803c f3a8 c0ba
00000260: cf56 1ebc f9a9 963d 5144 463d 33e9 813d
00000270: 9d78 34bd 5633 b8bb fb1a bc3c 40a4 89bd
00000280: a841 0f3c da4f 463b ee2b d03c 95a3 62bc
00000290: 6850 95bb 7e6f 7b3d d239 1b3b c8d4 913c
000002a0: c0d9 d63a a2f3 7ebd e3af 24bd faff 5bbd
000002b0: a00c 463d 3823 aabc e695 18bd ac95 a2bc
000002c0: 1710 5fbd 15a9 73bc 69a1 3abd 1639 aa3c
000002d0: 9b0f 813d 8d4a 7f3c 548e a7bc c143 54bd
000002e0: a31d 02bd b3f1 363c cc2f e23c 599c ee3c
000002f0: 844c 903c 9f04 e93c 9351 a738 adc6 88bd
00000300: edb7 abb9 1da0 93bd 5c6c 833c 7bab 113d
00000310: f2a9 83bc 3e10 ba3c 9012 e43c a586 c03c
00000320: 1c72 133d 3e1c 66bd 5b85 48bc 17b0 3a3c
00000330: 5e52 393d e7fc 46bd a4f2 053d 0d9b 54bc
00000340: a2f8 f4bc 9c74 b23c ac71 e2bc 3e91 20bd
00000350: 8a9d ba3b f6c9 0b3d d06d 6d3d 6652 863d
00000360: e104 f8bc f980 18bd 4574 973c 6c54 2bbb
00000370: 7cea 1fbc 0f1d 9c3d 7e0c 3cbd a690 c8bc
00000380: 5cda 783d 0d3e 923d 8120 1d3c f897 b1bc
00000390: e0e2 b3ba 6d7b 9dbd 6d34 67bc e6ff 94bc
000003a0: 9d2f 98bc ace3 993c 11b8 5bbd 2075 7fbc
000003b0: da66 8c3c eda6 8f3c f705 1bbd e9c6 9dbc
000003c0: 860d 0ebd 4103 9e3d 4c19 96bd d28c 053d
000003d0: 6891 96bd dbfa 49bd 1d4d 873d 7148 a3bb
000003e0: 7214 59bd cc2d adbc f435 76bd 1596 0abd
000003f0: 3cec 07bd d058 40bd 2ca8 8bbc 30fd 81bd

gc1.linear.bias f4 [166]
-0.0043430007 0.059003185 -0.051610064 -0.035039462 0.01713551 -0.04116811 0.06278111 0.005053208
-0.008539646 -0.024765262 -0.040995374 -0.05927889 -0.022804542 0.043194678 -0.0048170956 -0.039567623
-0.025508825 -0.059873972 -0.0013543993 -0.013294427 0.068334535 -0.018628225 -0.055862032 -0.038618796
-0.07739051 0.07108243 0.024184043 -0.0024998137 -0.009135836 -0.029241655 0.069250904 -0.032217607
0.042845685 -0.06027931 0.0141322715 0.05200287 0.06502948 0.070537254 -0.06925617 -0.014271909
-0.06208002 -0.0024734258 0.005260583 -0.05499627 0.019055465 0.002571696 0.061194543 -0.048275128
0.065616764 -0.002886991 0.052787356 0.0028548574 0.06932274 0.030930113 -0.07077756 0.023399547
-0.06613185 -0.002615867 -0.0020420032 0.024143258 -0.031108223 0.018126557 -0.005604894 0.04051237
-0.07742903 0.07168345 -0.025400693 0.05391319 -0.008133844 -0.0056845387 -0.07051583 -0.04338728
-0.06275492 -0.06649232 0.06202443 0.034023665 0.051031075 -0.016014753 -0.04663543 0.04429904
-0.043420736 0.056416288 -0.0067716166 -0.02719683 0.063885935 -0.03622235 -0.018571636 0.050330315
-0.05265214 -0.06318366 -0.01705146 -0.021905761 0.05339334 -0.015539113 0.033198606 -0.040539786
0.020162962 0.058612995 0.0036751875 0.053497776 0.029151112 -0.027590754 0.018455278 -0.018285431
0.0014685187 0.0053494805 0.004803855 0.06718081 0.04902659 -0.06121213 -0.07282771 0.03679933
-0.0627123 -0.055641316 -0.041821398 0.045361407 -0.057122517 -0.062235035 -0.071361125 0.007274061
0.045361314 -0.068230875 -0.077298164 -0.040957246 -0.021423949 0.06314118 -0.036925692 0.005852304
0.0084615275 -0.010532408 -0.035487548 -0.03068696 0.03165185 0.043865528 0.0383004 0.03291702
0.0038837744 -0.035371516 0.02206135 0.050659526 0.011867303 0.0026001842 0.06061027 0.0044101733
0.06568709 -0.006091072 -0.049542934 0.07025398 0.059696823 0.07130414 0.017426342 -0.02761653
-0.015808322 0.07663308 0.050951976 0.0067099957 -0.032491554 0.028167013 -0.011235529 0.019076709
-0.009072226 -0.030942569 0.06316431 -0.059534315 -0.003993888 0.06882237
00000000: bb4f 8ebb 53ad 713d 1365 53bd 8a85 0fbd
00000010: c55f 8c3c e49f 28bd 6293 803d 6295 a53b
00000020: dfe9 0bbc 85e0 cabc c4ea 27bd 6cce 72bd
00000030: 97d0 babc e7ec 303d bad8 9dbb a911 22bd
00000040: e2f7 d0bc 693e 75bd 1986 b1ba ded0 59bc
00000050: faf2 8b3d 389a 98bc 96cf 64bd be2e 1ebd
00000060: ea7e 9ebd aa93 913d 9d1d c63c ead3 23bb
00000070: 79ae 15bc 328c efbc 6bd3 8d3d 9cf6 03bd
00000080: f57e 2f3d 70e7 76bd 0b8b 673c f600 553d
00000090: 2d2e 853d d675 903d 2ed6 8dbd bad4 69bc
000000a0: 9e47 7ebd 3319 22bb f860 ac3b c543 61bd
000000b0: 351a 9c3c e689 283b 21a7 7a3d 24bc 45bd
000000c0: 1562 863d ac33 3dbb 8e37 583d 8f18 3b3b
000000d0: 15f9 8d3d 2661 fd3c d3f3 90bd 68b0 bf3c
000000e0: 2370 87bd f76e 2bbb 21d3 05bb 15c8 c53c
000000f0: acd6 febc 257e 943c 42a9 b7bb 4df0 253d
00000100: 1c93 9ebd c6ce 923d 1d15 d0bc 14d4 5c3d
00000110: d043 05bc 5e45 babb 9a6a 90bd dcb6 31bd
00000120: a785 80bd 202d 88bd 540d 7e3d 665c 0b3d
00000130: f605 513d 5f31 83bc cb04 3fbd e972 353d
00000140: f1d9 31bd c414 673d 70e4 ddbb e3cb debc
00000150: a1d6 823d e35d 14bd 8b23 98bc 2927 4e3d
00000160: c5a9 57bd 6f66 81bd 81af 8bbc b673 b3bc
00000170: fab2 5a3d c497 7ebc 43fb 073d 0c0d 26bd
00000180: cc2c a53c 2e14 703d 6adb 703b 7c20 5b3d
00000190: 50ce ee3c 0106 e2bc 862f 973c 54cb 95bc
000001a0: 507b c03a b24a af3b a869 9d3b 1896 893d
000001b0: 1bd0 483d 92b9 7abd b226 95bd e5ba 163d
000001c0: 4e6f 80bd 26e8 63bd ea4c 2bbd e2cc 393d
000001d0: 4df9 69bd 2aea 7ebd c825 92bd 3f5b ee3b
000001e0: c9cc 393d a1bc 8bbd 804e 9ebd c9c2 27bd
000001f0: 4781 afbc 2a50 813d 653f 17bd afc4 bf3b
00000200: 38a2 0a3c 1f90 2cbc 645b 11bd 3863 fbbc
00000210: 5fa5 013d 57ac 333d e1e0 1c3d ffd3 063d
00000220: ec86 7e3b b9e1 10bd 01ba b43c 5d80 4f3d
00000230: 146f 423c da67 2a3b 7942 783d 3783 903b
00000240: f486 863d 9e97 c7bb 88ed 4abd 52e1 8f3d
00000250: a884 743d e807 923d b0c1 8e3c 103c e2bc
00000260: 7480 81bc cef1 9c3d 05b3 503d 86df db3b
00000270: dd15 05bd 82be e63c 3915 38bc c246 9c3c
00000280: aca3 14bc 457b fdbc 4a5c 813d 41da 73bd
00000290: 29df 82bb bef2 8c3d

gc2.weight f4 [64, 2]
0.04848925 -0.241173 -0.3412602 0.2540447 -0.51528955 0.04838986 0.053933408 0.02271502
-0.15701562 -0.18278562 -0.008123682 -0.024923094 -0.66088367 0.12591332 -0.34781545 0.16397421
-0.77768666 0.083069764 -0.2128099 0.33383313 -0.49035496 0.25167274 0.2487744 -0.4036949
-0.12886667 -0.21694477 -0.17624931 -0.33050737 0.05762889 -0.10931193 -0.5310006 0.04293088
0.1956527 -0.13389987 -0.002695656 -0.2566221 0.13672574 -0.23793691 0.12099436 0.06691996
0.010753666 0.017576195 -0.507905 0.18235826 0.3003936 -0.20269437 -0.056560326 0.23551229
0.09179904 -0.17701025 0.012293128 0.28601032 0.16398412 -0.2653108 0.07293819 0.16845547
-0.52731544 0.22184828 0.20430206 -0.33211148 0.34157827 -0.0050278543 0.25665417 -0.35136
0.18949002 -0.3074752 -0.42781812 0.1145391 0.18111907 -0.13800678 0.33203077 -0.23800294
0.082326606 -0.3191439 -0.58135605 0.037134986 -0.20028517 -0.23656234 -0.67098284 0.016530093
-0.083373375 -0.19925275 -0.04597599 0.28474736 -0.24078481 0.16973446 0.17167942 -0.2156236
-0.24538594 0.051711977 -0.20118038 0.3975705 -0.3549288 0.32286668 0.086797446 -0.23518482
-0.23369119 -0.23274533 -0.43896118 -0.037648875 -0.424744 0.123618096 -0.20114267 0.11451574
-0.23088472 -0.33229595 -0.017890062 0.21081117 0.06080984 -0.23293991 0.08486302 0.013690291
-0.35052133 0.21698965 -0.11567611 0.19068521 0.17736757 -0.17470422 -0.4976415 -0.026034746
-0.4770154 0.15967113 -0.18160087 -0.012016979 -0.50376284 -0.022639645 -0.32577354 -0.12202115
00000000: aa9c 463d 0ef6 76be a8b9 aebe 2612 823e
00000010: 04ea 03bf 7234 463d 47e9 5c3d da14 ba3c
00000020: b4c8 20be 272c 3bbe 3119 05bc 842b ccbc
00000030: ac2f 29bf 6cef 003e de14 b2be dbe8 273e
00000040: 7916 47bf 7b20 aa3d d7ea 59be 2dec aa3e
00000050: ce0f fbbe 40db 803e b7be 7e3e 19b1 cebe
00000060: a0f5 03be c526 5ebe b37a 34be 4338 a9be
00000070: 450c 6c3d efde dfbd a8ef 07bf 4ad8 2f3d
00000080: 2e59 483e 0c1d 09be 9aa9 30bb f963 83be
00000090: d501 0c3e bca5 73be e4cb f73d 550d 893d
000000a0: 2530 303c f4fb 8f3c 1006 02bf 20bc 3a3e
000000b0: 31cd 993e 1d8f 4fbe cdab 67bd 222a 713e
000000c0: 2301 bc3d 2d42 35be 1e69 493c f26f 923e
000000d0: 74eb 273e d1d6 87be 9e60 953d 977f 2c3e
000000e0: 25fe 06bf 322c 633e 8f34 513e 840a aabe
000000f0: 59e3 ae3e b3c0 a4bb 2d68 833e 75e5 b3be
00000100: ac09 423e 646d 9dbe fa0a dbbe 7a93 ea3d
00000110: 4777 393e a651 0dbe f0ff a93e 0bb7 73be
00000120: da9a a83d d466 a3be c0d3 14bf db1a 183d
00000130: 8e17 4dbe 663d 72be 88c5 2bbf 1e6a 873c
00000140: a9bf aabd ea08 4cbe 5251 3cbd 68ca 913e
00000150: 4b90 76be dfce 2d3e bbcc 2f3e 6fcc 5cbe
00000160: 7446 7bbe f0cf 533d 3b02 4ebe 5c8e cb3e
00000170: 3ab9 b5be c84e a53e dcc2 b13d 4ad4 70be
00000180: be4c 6fbe cb54 6ebe 85bf e0be b535 1abd
00000190: 0c78 d9be 7c2b fd3d 58f8 4dbe 3a87 ea3d
000001a0: 0b6d 6cbe b222 aabe 2e8e 92bc e2de 573e
000001b0: bd13 793d cd87 6ebe aacc ad3d 3e4d 603c
000001c0: 8877 b3be 8932 5e3e 99e7 ecbd fc42 433e
000001d0: d89f 353e aae5 32be deca febe d246 d5bc
000001e0: 5d3b f4be d480 233e 94f5 39be dde2 44bc
000001f0: 9af6 00bf c776 b9bc cacb a6be 3ae6 f9bd

gc2.bias f4 [2]
1.0605308 1.1386253
00000000: 79bf 873f 79be 913f

gc2.linear.weight f4 [64, 64]
-0.027284056 -0.005321443 0.021399185 -0.038586363 0.09682253 0.098870635 -0.07910867 0.023608
0.046638146 0.04709351 -0.075313345 -0.050673217 -0.050287068 0.06848933 0.0898138 -0.07910609
-0.003976941 0.022594422 -0.038294762 0.0126452 0.00046019256 0.06276576 0.12324029 0.0748702
-0.016125143 0.01860787 -0.08533147 0.07874389 -0.10964967 -0.074241206 -0.10260457 -0.016579598
0.06485975 -0.009726495 -0.08865671 -0.006550312 -0.025261194 -0.031436697 0.062912345 -0.08289908
0.08628495 0.07594672 -0.009388074 -0.0018587261 -0.099677265 -0.06469384 0.085057914 -0.06709656
0.0017909408 -0.121760994 0.08176857 0.08715862 0.05547312 -0.012219727 0.037753955 -0.0053448975
0.059634835 0.07366921 0.112474054 0.08527905 -0.11518952 0.016894102 -0.025995195 -0.016563043
0.08757584 -0.06188795 0.08150597 0.10944624 -0.06841527 -0.02117531 0.10009852 0.044132844
-0.08551276 0.11280313 -0.009598777 -0.0026271641 0.00062069297 -0.10246527 0.022108689 -0.08449757
0.04710315 -0.036127537 -0.042719424 -0.016390175 -0.001208201 -0.030130967 0.056349695 0.08940934
0.06096174 -0.09600334 0.09687728 0.098626435 -0.03643447 0.10812406 0.043340474 0.095120534
-0.110190764 -0.055024713 0.041395128 0.022274584 0.097348094 0.08310363 0.055146858 0.008698806
-0.06023404 0.11178802 -0.0627093 -0.0055490285 0.06111476 0.096707344 0.06085661 -0.03203088
0.08937892 0.11439355 0.060876876 -0.05037509 0.06524199 -0.033414602 -0.06206332 -0.093974575
-0.09045586 0.009516299 0.121254236 -0.09257999 0.08879998 -0.09641491 0.119708076 0.088761315
-0.119360104 0.05505462 0.10412982 -0.06714876 -0.0043866783 0.062103823 0.06028232 -0.02880676
-0.0718517 -0.09741598 -0.11741629 -0.011862829 0.018796772 -0.01031284 0.06634776 0.021754518
-0.12146965 -0.019028232 -0.07575825 -0.119704336 0.07092446 -0.053329334 0.043192074 -0.12040669
0.028972596 -0.04475236 0.0292954 0.0024636686 0.030981138 -0.049538404 -0.0705504 -0.10414949
0.07166399 -0.025365442 -0.083026946 0.009562969 0.09866361 0.05678937 0.027384087 0.059519082
-0.100396425 -0.00775373 0.06471184 0.033560157 0.11759432 -0.024297029 -0.119990245 -0.09356333
-0.053756446 0.11559148 -0.019609898 -0.09323998 0.10711935 -0.040741816 -0.09291482 -0.080151945
0.104019865 -0.11721018 0.0947092 -0.045091525 -0.08720733 -0.019322708 0.101274446 0.04209955
0.05404617 0.08586615 -0.07627475 0.09757182 0.08102748 -0.009654656 -0.06327438 0.097062126
0.06859398 -0.0068582 -0.063188 0.01955536 0.076124534 -0.042650312 0.06189868 0.0062224567
0.12100203 0.04833126 0.120384485 -0.09679213 0.07439914 -0.05271919 0.048235252 0.121701196
-0.04781802 -0.011385083 -0.05293955 0.01346086 0.04103236 -0.07212275 -0.08226006 -0.10215251
-0.051718026 -0.05850835 -0.009565964 -0.07686384 -0.0878274 0.08634025 0.008028343 0.00823985
-0.11245519 -0.016102925 -0.099167034 0.005121559 -0.040739313 -0.08960138 0.0011228025 0.07564561
-0.079194546 -0.020317733 -0.08446258 0.057219386 -0.12025787 -0.053319767 0.06889154 0.06362592
-0.06474103 0.11562535 0.08275986 -0.099822015 0.09217811 0.10853094 -0.11799483 0.083623216
00000000: d082 dfbc 805f aebb 584d af3c bc0c 1ebd
00000010: e44a c63d b07c ca3d ba03 a2bd 9065 c13c
00000020: a407 3f3d 20e5 403d e23d 9abd b88e 4fbd
00000030: d0f9 4dbd 2244 8c3d 4cf0 b73d 6002 a2bd
00000040: 0051 82bb f017 b93c f8da 1cbd d02d 4f3c
00000050: 0046 f139 568b 803d 6865 fc3d 8c55 993d
00000060: e018 84bc 886f 983c 44c2 aebd 7a44 a13d
00000070: 0290 e0bd c60b 98bd 5822 d2bd f0d1 87bc
00000080: 30d5 843d e05b 1fbc a691 b5bd 00a4 d6bb
00000090: 90f0 cebc c4c3 00bd 30d8 803d fec6 a9bd
000000a0: 2ab6 b03d f489 9b3d 70d0 19bc 80a0 f3ba
000000b0: 9823 ccbd 347e 84bd d832 ae3d ec69 89bd
000000c0: 00be ea3a d45d f9bd 4876 a73d 3880 b23d
000000d0: c837 633d 4035 48bc e4a3 1a3d 4024 afbb
000000e0: a843 743d e2df 963d cc58 e63d c8a6 ae3d
000000f0: 7ce8 ebbd 8065 8a3c e0f3 d4bc 38af 87bc
00000100: f65a b33d 387e 7dbd 9aec a63d 5a25 e03d
00000110: 4e1d 8cbd d877 adbc 7400 cd3d a4c4 343d
00000120: 5021 afbd 5405 e73d 3044 1dbc 802c 2cbb
00000130: 00b6 223a 50d9 d1bd 481d b53c 100d adbd
00000140: 3cef 403d 78fa 13bd 90fa 2ebd b044 86bc
00000150: 805c 9eba 38d5 f6bc f0ce 663d 3e1c b73d
00000160: 04b3 793d 669d c4bd 9867 c63d a8fc c93d
00000170: 503c 15bd 2670 dd3d c885 313d 8ece c23d
00000180: b2ab e1bd 9861 61bd f08d 293d 3079 b63c
00000190: 705e c73d 3c32 aa3d ace1 613d 7085 0e3c
000001a0: f8b7 76bd 1ef1 e43d bc6d 80bd a0d4 b5bb
000001b0: 7853 7a3d 800e c63d c844 793d d032 03bd
000001c0: 4c0c b73d 2a47 ea3d 085a 793d 1c56 4ebd
000001d0: 989d 853d c0dd 08bd 1c36 7ebd be75 c0bd
000001e0: ec40 b9bd 40ea 1b3c 2454 f83d 949a bdbd
000001f0: c4dc b53d 2e75 c5bd 8229 f53d 7ec8 b53d
00000200: 1273 f4bd f480 613d 0442 d53d 4a85 89bd
00000210: 20be 8fbb 9460 7e3d 98ea 763d 28fc ebbc
00000220: fc26 93bd 0882 c7bd f477 f0bd 505c 42bc
00000230: b0fb 993c 30f7 28bc 56e1 873d 8836 b23c
00000240: 14c5 f8bd 18e1 9bbc 2427 9bbd 8c27 f5bd
00000250: d840 913d dc6f 5abd 2cea 303d c897 f6bd
00000260: f057 ed3c 404e 37bd e8fc ef3c 8075 213b
00000270: 28cc fd3c c8e8 4abd ba7c 90bd 544c d5bd
00000280: 92c4 923d 30cb cfbc 080a aabd 00ae 1c3c
00000290: 2610 ca3d f89b 683d 9854 e03c 48ca 733d
000002a0: a49c cdbd 0013 febb a487 843d 6076 093d
000002b0: 4ad5 f03d 900a c7bc 72bd f5bd 229e bfbd
000002c0: b82f 5cbd 3abb ec3d f0a4 a0bc 9af4 bebd
000002d0: 6461 db3d e4e0 26bd 204a bebd b426 a4bd
000002e0: 5e08 d53d e40b f0bd e6f6 c13d e4b1 38bd
000002f0: c299 b2bd a84a 9ebc fa68 cf3d 9470 2c3d
00000300: 845f 5d3d 98da af3d f035 9cbd bcd3 c73d
00000310: bcf1 a53d 902e 1ebc 0096 81bd 82c8 c63d
00000320: 007b 8c3d c0ba e0bb b668 81bd 9032 a03c
00000330: 2ee7 9b3d 18b2 2ebd 7889 7d3d c0e5 cb3b
00000340: eacf f73d 00f7 453d 248c f63d f43a c6bd
00000350: 945e 983d 14f0 57bd 5492 453d 7a3e f93d
00000360: d4dc 43bd 8088 3abc 24d7 58bd f08a 5c3c
00000370: 8c11 283d 18b5 93bd f677 a8bd 5635 d1bd
00000380: 48d6 53bd 74a6 6fbd 90ba 1cbc ca6a 9dbd
00000390: dade b3bd 28d3 b03d 5089 033c 7000 073c
000003a0: e84e e6bd 48ea 83bc 1618 cbbd c0d2 a73b
000003b0: 44de 26bd ee80 b7bd 002b 933a 16ec 9a3d
000003c0: c030 a2bd 6071 a6bc b8fa acbd e05e 6a3d
000003d0: c249 f6bd d465 5abd 0217 8d3d 4e4e 823d
000003e0: f296 84bd fccc ec3d 007e a93d 7c6f ccbd
000003f0: e0c7 bc3d 7845 de3d 46a7 f1bd a642 ab3d

gc2.linear.bias f4 [64]
0.014111102 -0.049314886 0.016925588 0.060952067 0.061227337 -0.002880156 0.09486379 0.1099451
0.10086717 0.11201283 0.042910397 -0.10193463 0.10450633 0.011281505 0.11030096 -0.123326436
0.063633576 -0.031724945 0.12441231 0.105460644 0.052071273 -0.09081791 0.096650526 -0.0018851757
0.012348145 -0.08485067 0.11148743 0.046913296 0.06423038 0.11813165 -0.08363818 0.0757083
0.06744711 -0.037013277 -0.0257525 0.12405038 -0.08767186 0.049434304 0.058314726 -0.0362435
0.049582556 -0.091235325 -0.037671924 -0.053396687 0.07917374 0.103513256 -0.019889265 -0.055037245
0.05770071 -0.06243041 0.04746239 -0.01088728 0.11462502 -0.05812578 0.021662474 -0.10835791
0.07585615 0.083589435 0.041624337 -0.028796017 0.0604565 -0.052583307 0.08427796 0.04145117
00000000: 4032 673c 68fe 49bd 88a7 8a3c e0a8 793d
00000010: 84c9 7a3d 00c1 3cbb f247 c23d e62a e13d
00000020: 7293 ce3d fc66 e53d d0c2 2f3d 1ac3 d0bd
00000030: 6a07 d63d 10d6 383c 78e5 e13d 9292 fcbd
00000040: 5252 823d 04f2 01bd e2cb fe3d c0fb d73d
00000050: b048 553d befe b9bd b6f0 c53d 0018 f7ba
00000060: e04f 4a3c 30c6 adbd 8653 e43d 2828 403d
00000070: 388b 833d 02ef f13d 7e4a abbd f40c 9b3d
00000080: b621 8a3d 3c9b 17bd e8f6 d2bc 200e fe3d
00000090: 4e8d b3bd a07b 4a3d 6cdb 6e3d 1074 14bd
000000a0: 1417 4b3d 96d9 babd e04d 1abd 7cb6 5abd
000000b0: d825 a23d c2fe d33d d0ee a2bc bc6e 61bd
000000c0: 9457 6c3d 08b7 7fbd ec67 423d 9060 32bc
000000d0: 86c0 ea3d 4c15 6ebd 8075 b13c c0ea ddbd
000000e0: 785a 9b3d f030 ab3d 487e 2a3d a0e5 ebbc
000000f0: 3ca1 773d 9861 57bd ec99 ac3d b4c8 293d
